…
        "id": "NevR8m8fEeED",
        "colab": {
          "base_uri": "https://localhost:8080/"
        },
        "outputId": "d7fae402-73be-44a1-b886-b84388cd0bcb"
      },
      "outputs": [
        {
          "output_type": "stream",
          "name": "stdout",
          "text": [
            "Model: \"sequential_1\"\n",
            "_________________________________________________________________\n",
            " Layer (type)                Output Shape              Param #   \n",
            "=================================================================\n",
            " conv2d (Conv2D)             (None, 64, 64, 16)        448       \n",
            "                                                                 \n",
            " conv2d_1 (Conv2D)           (None, 64, 64, 32)        4640      \n",
            "                                                                 \n",
            " max_pooling2d (MaxPooling2D  (None, 21, 21, 32)       0         \n",
            " )                                                               \n",
            "                                                                 \n",
            " conv2d_2 (Conv2D)           (None, 21, 21, 32)        9248      \n",
            "                                                                 \n",
            " conv2d_3 (Conv2D)           (None, 21, 21, 64)        18496     \n",
            "                                                                 \n",
            " max_pooling2d_1 (MaxPooling  (None, 7, 7, 64)         0         \n",
            " 2D)                                                             \n",
            "                                                                 \n",
            " conv2d_4 (Conv2D)           (None, 7, 7, 128)         73856     \n",
            "                                                                 \n",
            " conv2d_5 (Conv2D)           (None, 7, 7, 256)         295168    \n",
            "                                                                 \n",
            " max_pooling2d_2 (MaxPooling  (None, 2, 2, 256)        0         \n",
            " 2D)                                                             \n",
            "                                                                 \n",
            " batch_normalization (BatchN  (None, 2, 2, 256)        1024      \n",
            " ormalization)                                                   \n",
            "                                                                 \n",
            " flatten_1 (Flatten)         (None, 1024)              0         \n",
            "                                                                 \n",
            " dropout (Dropout)           (None, 1024)              0         \n",
            "                                                                 \n",
            " dense_2 (Dense)             (None, 512)               524800    \n",
            "                                                                 \n",
            " dense_3 (Dense)             (None, 29)                14877     \n",
            "                                                                 \n",
            "=================================================================\n",
            "Total params: 942,557\n",
            "Trainable params: 942,045\n",
            "Non-trainable params: 512\n",
            "_________________________________________________________________\n"
          ]
        }
…
